outputs/lstm_model.pt (torch, 207349 bytes, 10 tensors)

lstm.weight_ih_l0 f4 [256, 2]
00000000: 82f6 db3d e87b 8a3d 6fa1 65bf 517d 3b3e
00000010: dc44 123e 7245 17bf 5221 80be 8618 9dbe
00000020: edc5 d43d 2f3a 433e 4e04 413e ffb0 71be
00000030: 32b4 5fbe 2fde 1e3f 9584 053f 2fdd 273e
00000040: 3a74 813e 9d9c 0c3e a9e3 f1be eff1 17bd
00000050: febd 36bf cc57 493e 5113 22bf 0948 143e
00000060: 06e9 42bf be03 9dbe b459 4ebf e630 f6be
00000070: 8f49 513e 974c 2bbf d154 cebd db65 e43d
00000080: 6c74 723f 1f9b 2c3f 7f25 8bbe 1c8e 123e
00000090: 26ac ccbd 01fc 3d3f 77f9 0e3e c4f6 7cbd
000000a0: ca21 04bf d816 343e a586 073f 18c8 7dbf
000000b0: 0f59 6fbe db39 febd 420d 063f 6e1a fc3d
000000c0: 6011 87be 403b 97bf a607 aabe 2cbc 313e
000000d0: 2a89 873d c7ec 173f a39a a33e 6a3b b13e
000000e0: bb24 0dbe 4c1c d03d bdf1 413c 2f41 cc3e
000000f0: f4e5 1f3f abb3 193d be4c cc3e 7bb3 ccbe
00000100: 45f4 29be 44e0 34bf 8806 8abe 7197 263f
00000110: 38c2 15be 8c00 b9bd c0a9 bb3e 986e 423e
00000120: e837 f13c aec9 863f a3c6 2dbf e8c0 a6be
00000130: d2cf 12bd b8b2 fcbb be53 8f3d 00b7 6f3e
00000140: 7fd4 d43b 52c9 8fbe 7536 b63e 645a f4ba
00000150: eb83 963d 750e 413f c9d7 aebe 92c1 e33b
00000160: 9f13 04bf 3178 6bbe 08a6 0bbe 75b8 943d
00000170: 62f6 d0be 2ba7 8d3e 219a 243e a06f 363e
00000180: fe04 473c 8e88 7cbe 5bfb 49bf 8979 a4bc
00000190: e45c 34bf 5c86 c53e 56fe 293e 9bc0 05be
000001a0: 751b 76be 1577 213f 8df5 04bf f178 873e
000001b0: 48bb 373f 154f 8e3f 9412 833e 9afb e23c
000001c0: 3fe1 fbbe 7263 df3c 5c3f 38bf 9dd3 0d3f
000001d0: f6f6 02bf 21b2 693c 2b40 7e3d 1fba fabe
000001e0: 3505 bc3f dda6 e33d 6e32 843f 0549 1d3d
000001f0: 9212 d53e 06ee 693e 0438 803e 674b 84be
00000200: 84e1 efbc 42c9 963d 81d9 d7bf c55c 52bd
00000210: 3c5d 243f 55b1 54bf e7d7 b1bf 4433 0cbf
00000220: f41e a1bf e047 76be fbab 853e 7291 43bf
00000230: 089e 31c0 ebeb a1bf 3c4b bfbe ba86 b93e
00000240: ee49 34bc f294 c63e f7d2 27c0 b4b0 24be
00000250: ab96 2ec0 2049 36bf 7def 08c0 fa54 a7bd
00000260: 4d75 10c0 83c3 1ebf d9df 38c0 f4f5 4abf
00000270: 1426 573f a44a 57bf 96ba 3ebf e110 1fbe
00000280: 9424 0fbf b54b e93e f4b4 45c0 dc81 26bf
00000290: 2e4d 77bf 436d 99bf da8f bfbf 8001 a3be
000002a0: 4d77 69bf 7329 fe3e 2af9 573f 9572 e3bf
000002b0: 920a 993e 24fa 5bbf ba56 b6bf 6410 3fbe
000002c0: b1ce 39be 455f 4dbf a0b7 933f be15 72bf
000002d0: cd53 c93e b8a4 323f b0b1 f1bf 0ae7 e9be
000002e0: eccb 26bf 0f64 e13e 8c28 02bf 9899 2ebe
000002f0: b731 f1be 9262 163f 29fc 513f 6747 debe
00000300: 116e bfbe 8112 40bf 3b02 28c0 3cf3 9dbf
00000310: 5f43 ddbf b00f 3bbd 9a9d 063e 84a0 be3e
00000320: 017a e1bf f63e 9abf 5b74 4ebf 3728 93bf
00000330: 0029 9a3e 9af1 c03e a909 f1bd f655 223e
00000340: cf3f a9bf dbbc 94bf d763 0abf dde8 46bf
00000350: 396e cfbf f1ab 22bf 5d66 32bf b96b 9a3e
00000360: f5d2 9ebf 2f7d 14be 880a c63e 9299 36bf
00000370: 5e3b 77bf dae8 79be aa4b 0ebf 537e 86bf
00000380: da4e 39bd 00c8 e8be 9d19 adbf c203 12bf
00000390: a02e 38c0 a350 86bf 761e 903e 359b 453e
000003a0: 2179 35c0 8227 6cbd 8b68 01c0 3922 e7be
000003b0: e0aa 37bc cd03 1e3f 2ad6 78bf 6673 323e
000003c0: 3749 23c0 2a10 18be 3389 11c0 9956 5abf
000003d0: dbc1 c8bf c256 8fbf ffbd 103f b2d7 55bf
000003e0: 1875 87bf 8d73 f3be 29a2 8bbf 30cb 7ebe
000003f0: 5faf 43bf 3687 cdbf 48ba 2cbf 1a8a f8bf
0.10740377 0.067619145 -0.89699453 0.18309523 0.1428408 -0.5909034 -0.2502542 -0.30682772
0.10389314 0.19065164 0.18849298 -0.23602675 -0.21846083 0.62057775 0.5215543 0.16392969
0.25283986 0.13731618 -0.47244003 -0.03709596 -0.71383655 0.19662398 -0.63310724 0.14480604
-0.76136816 -0.30666918 -0.80605626 -0.48084182 0.20438217 -0.6691374 -0.10074771 0.1115224
0.94708896 0.67424196 -0.27177045 0.14312023 -0.09993772 0.7421265 0.13962351 -0.06175877
-0.5161406 0.17586839 0.52939826 -0.99133444 -0.23373817 -0.12413379 0.5236398 0.123097286
-0.26380444 -1.1814957 -0.3320896 0.17356938 0.06617959 0.5934567 0.31953916 0.34615642
-0.13783543 0.10161647 0.01183742 0.3989348 0.62460256 0.03752486 0.399023 -0.39980683
-0.16597088 -0.706547 -0.26958108 0.6507483 -0.1462487 -0.090333074 0.36652946 0.189875
0.029445603 1.0530298 -0.6788122 -0.3256905 -0.035842724 -0.0077117346 0.069983944 0.23409653
0.006495058 -0.28083283 0.35588422 -0.0018642661 0.0734938 0.75412685 -0.34149006 0.0069505656
-0.5159244 -0.22995068 -0.13637555 0.07261745 -0.40812975 0.27666602 0.1607442 0.17816019
0.012147186 -0.24661466 -0.78899163 -0.020077484 -0.7045424 0.3857907 0.16600928 -0.13061754
-0.24033912 0.6307233 -0.5193718 0.26459458 0.71770144 1.1117884 0.2560011 0.027707864
-0.49195287 0.027269099 -0.7197168 0.5540102 -0.5115808 0.014263661 0.062072914 -0.48970124
1.4689089 0.11115811 1.032789 0.038399715 0.4161573 0.22844705 0.25042737 -0.25838777
-0.029282339 0.07362606 -1.6863252 -0.051358003 0.64204764 -0.8308309 -1.3894013 -0.54765725
-1.2587571 -0.24050856 0.26107773 -0.76393807 -2.7752705 -1.2650121 -0.37362087 0.362356
-0.011003954 0.3878551 -2.6222513 -0.16083032 -2.727946 -0.7120533 -2.1396172 -0.08170505
-2.2571595 -0.6201708 -2.8886626 -0.79281545 0.8404248 -0.8409827 -0.7450346 -0.15533783
-0.5591519 0.45565572 -3.0891695 -0.650419 -0.9660214 -1.1986469 -1.4965775 -0.31837082
-0.91197664 0.49640998 0.8436457 -1.7769343 0.29890877 -0.8592856 -1.4245217 -0.18658596
-0.18145253 -0.80223495 1.1540413 -0.94564426 0.39321747 0.6978259 -1.8882351 -0.4568408
-0.6515491 0.4402165 -0.5084312 -0.17050779 -0.47108242 0.58744156 0.8202539 -0.4341385
-0.37388662 -0.75028235 -2.6251361 -1.2339854 -1.7286185 -0.045669258 0.13146058 0.3723184
-1.7615358 -1.2050464 -0.80646294 -1.1496648 0.30109406 0.37684327 -0.11769421 0.15853104
-1.3222598 -1.1620134 -0.54058594 -0.7769907 -1.6205512 -0.6354361 -0.69687444 0.3016031
-1.2408129 -0.14500879 0.3867991 -0.7132808 -0.9657496 -0.24405232 -0.55584204 -1.0507301
-0.045241214 -0.45465088 -1.3523442 -0.57036984 -2.8778458 -1.0493358 0.2814824 0.19297488
-2.8355181 -0.057654865 -2.0220058 -0.45143297 -0.011210173 0.6172455 -0.9720179 0.17426834
-2.5513437 -0.14849916 -2.273999 -0.8528839 -1.568416 -1.1198351 0.5653991 -0.8353225
-1.0582609 -0.47549096 -1.0908862 -0.24882197 -0.7643947 -1.6056888 -0.6747174 -1.9417145

lstm.weight_hh_l0 f4 [256, 64]
00000000: 2539 f0be 76c0 8e3e ec83 94bc f891 09bf
00000010: 5701 ba3d 7f7f 123f 8f41 0b3f 737b 0dbf
00000020: 876c 0c3f 3ea1 11bf ff48 a83e 2cc4 83be
00000030: a40a 4cbf c917 9bbf f84e 96be 7288 e13e
00000040: b8f1 17be 4bf6 dabe 0d2d 593d c00b 1cbf
00000050: b88e e13e 59fd 1a3f 32e9 9d3d e0ee a0be
00000060: 1fbb 6abf 1c1f 873c 9535 00bf 66c1 0b3e
00000070: e175 1b3f 329f d93e 8d0c 663f f816 953d
00000080: 4567 dfbc 84e0 07be 76c7 43bf d6b0 acbe
00000090: 53c0 643e 868a 53bf 352e 893d 2f22 aebe
000000a0: 82d0 24bf 6236 ecbe 79eb 86bd db60 43bf
000000b0: 551f cdbe 1bbf c5bb ab2d c43e d5d6 b0be
000000c0: b6bd c43e bd49 04bf 3951 8fbe 667d 9f3e
000000d0: 50ba 643e 1e70 053f cbc7 b5be 0c6c 71bf
000000e0: f028 123f fa5d abbe 45d5 1c3f bf6a 213e
000000f0: 01ec 093e 740f a6bd f978 d63e bf0f dfbe
00000100: 508c 2bbf 147f 13be f98e 6e3d 9a4e b2bf
00000110: 0c3b cdbe d1ee 2e3f 46c4 2a3e cc26 fdbe
00000120: d49f 343f 82b7 90bf 2a3a e5be 0569 2d3e
00000130: b51a f4be 8d05 03c0 76ec 87bf 180a cd3d
00000140: 955c 853f 904c 37bf 0eb5 eebe 4589 38bf
00000150: 31ec b4bf 0e58 793f 2e97 2b3f a32e 513e
00000160: 317d 00be e81b 2cbf 5e11 bfbf 2af8 bd3f
00000170: 5cc4 a83f 7be2 b43e f8c8 f83f 612c 973e
00000180: f5ae 6f3e 3db7 393e f5bc d23d 296d 4abc
00000190: 0385 4cbe aa99 79bf 6969 57bf f59b 273e
000001a0: 7761 b6bf 5b97 eabe 5fba 29be 6131 303e
000001b0: 884c fcbf 0395 023f 2ef9 94be d497 dfbf
000001c0: f19c 0a40 f6b5 4ebf 73db bc3d 7dcc 5dbe
000001d0: 8546 9a3e f198 933e 2b7c de3e bf6d 51bf
000001e0: 727f c43f 8d1d c5be 2972 373f 1b75 9c3c
000001f0: 61ea 28bf ec6a 2f3f cbb2 873f e844 88bf
00000200: 05b0 ac3f a028 0bbe c508 523f 88c0 cbbd
00000210: 5988 16bf 1a4e adbe a151 643f 254a 713f
00000220: d153 72bf 8e68 093d b4c0 193e ae40 c23d
00000230: 5dd4 c9be bd35 63bf 875f 80bf b040 6abf
00000240: a2ee 933f 87ce 06bf 1424 30be 94ec 963e
00000250: 2f91 adbf 476e cc3f d6e1 183e 8989 533f
00000260: fe8c 95bf df89 08bf 19ed 9dbe adb9 443f
00000270: 8313 8ebf ebf5 723f a863 25bf 48c8 52bf
00000280: 41d1 3cbf b23a 13be 4135 b33e 3ca7 923f
00000290: a4db e0bc 3f43 88bf 3f05 903d 9ec2 963f
000002a0: 01f8 a3bf 3da2 46bf 5c9d bcbe fe04 6e3f
000002b0: dc0c adbf 47db 1f3f 4a80 7abf 8c25 a0bf
000002c0: 3e1e 4f3f dd59 b4bf 67db d63d 6132 84bf
000002d0: 8ecb 353f d98e 8c3f 20fc f23e 048e ee3e
000002e0: 47f6 ae3f 43cf 21be 9d42 1d3f 1a72 3bbf
000002f0: e023 b23e a11d 883f 22ac 743f 5bfe 98bf
00000300: 85c7 9c3e c94b 593e 59e7 753d 44e4 e13d
00000310: 874f f0bd cf6c fd3e a641 e13e 2a89 9e3e
00000320: fbf1 c2be 363e b2be 0b10 963e 899b db3b
00000330: 8e40 e4be 72f5 74bf 4060 893d e9d1 ea3d
00000340: 090e 473e d16c 23be e898 683e df81 28be
00000350: 5746 babe f666 0f3f 81fa c03c ce5b b93e
00000360: aeb0 63bf bb62 683e c0e5 043f 8325 cd3e
00000370: 1c8d 6cbe 0ae0 d83e 54c3 8bbd 5774 dcbd
00000380: 0e41 9cbd fc3e 01be 1583 333b dc53 e53e
00000390: d8de cf3e 77a2 1cbf a81d 3e3f e702 0c3e
000003a0: afad 80bf 1259 bbbe a4e8 aa3e bbe7 babd
000003b0: 6df3 13bf 6f59 bd3d 0e93 b63d 44ec 3abe
000003c0: ca4c a2be 9f20 30bf 38f4 693c 4e87 cebd
000003d0: 3103 913e 4c19 033f 4deb 9d3d 8a64 7fbe
000003e0: 0755 4c3f 5129 50be ff5d 8e3e 89a4 923c
000003f0: 350a 503f 73d3 ba3e 9ebf b03e 5344 e0be
-0.46918598 0.2788121 -0.018129312 -0.53738356 0.09082287 0.57225794 0.5439691 -0.55266494
0.548531 -0.5688666 0.32868192 -0.25735605 -0.79703736 -1.2116634 -0.29357123 0.44049412
-0.14838302 -0.42766032 0.05302148 -0.6095543 0.44054198 0.6054283 0.07710494 -0.31432247
-0.91691774 0.016494326 -0.5008176 0.13647994 0.60726744 0.4250427 0.898629 0.072797716
-0.027270922 -0.1326924 -0.7647623 -0.33728665 0.22338991 -0.82633245 0.066982664 -0.34010455
-0.6438066 -0.4613524 -0.065878816 -0.76319665 -0.40062967 -0.0060347444 0.38316092 -0.34538904
0.38425988 -0.51675016 -0.27991655 0.3115036 0.22336698 0.521242 -0.35503992 -0.9430549
0.57093716 -0.33470136 0.61262923 0.15763377 0.13468935 -0.08108416 0.4188917 -0.435667
-0.67010975 -0.14403945 0.058241818 -1.3930237 -0.40084112 0.68333155 0.16676435 -0.49443662
0.7055638 -1.1306002 -0.44770938 0.16934593 -0.47676626 -2.0472138 -1.0619037 0.10011691
1.0418879 -0.716012 -0.4662251 -0.72084457 -1.413458 0.97399986 0.67027557 0.20427947
-0.12547757 -0.6723008 -1.4927175 1.4841359 1.3184924 0.3532904 1.9436331 0.29526046
0.23406585 0.18136306 0.10289947 -0.012355127 -0.19972615 -0.975001 -0.8414522 0.16368087
-1.4248494 -0.458186 -0.16575001 0.17206337 -1.9710855 0.51008624 -0.2909636 -1.7468209
2.165829 -0.807464 0.09221544 -0.21660037 0.30131927 0.28827623 0.43454108 -0.81808084
1.5351393 -0.38499108 0.7165857 0.019098809 -0.65982634 0.68522525 1.0601438 -1.0646029
1.3491217 -0.13589716 0.8204463 -0.09948832 -0.588018 -0.3384865 0.89187056 0.9425376
-0.94659144 0.033546977 0.15014917 0.09484993 -0.39419833 -0.88753873 -1.0029153 -0.91504955
1.15572 -0.52658886 -0.17201263 0.2947737 -1.3559932 1.5971154 0.149299 0.82631737
-1.1683652 -0.53335375 -0.30844954 0.7684582 -1.1099705 0.9490649 -0.6460519 -0.82336855
-0.73756796 -0.14377859 0.35001567 1.1457286 -0.027448483 -1.0645522 0.070322506 1.1778142
-1.281006 -0.77591306 -0.36838806 0.9297637 -1.3519549 0.62443966 -0.97852004 -1.2511458
0.8090552 -1.4089924 0.104910664 -1.0327874 0.71013725 1.0981094 0.4745798 0.46592724
1.3668908 -0.1580172 0.6142977 -0.7322098 0.34792995 1.0634042 0.95575154 -1.1952623
0.3062097 0.21220316 0.060035083 0.11029866 -0.11733919 0.49497077 0.43995398 0.30964023
-0.3807524 -0.34813088 0.29309115 0.006701891 -0.445805 -0.9568702 0.06707811 0.114658184
0.19438948 -0.15959479 0.22714579 -0.16455792 -0.3638179 0.5601648 0.02355695 0.36202854
-0.88941467 0.22693913 0.5191307 0.40067682 -0.23100704 0.42358428 -0.06824365 -0.107643776
-0.07629596 -0.12621683 0.0027391363 0.44790542 0.40599704 -0.611854 0.74264 0.13672982
-1.0053004 -0.36591393 0.33380616 -0.0912623 -0.57793313 0.09245574 0.08914767 -0.1825419
-0.3169921 -0.68799776 0.014279418 -0.10084401 0.28322747 0.51210475 0.07710896 -0.24940696
0.7981724 -0.20328261 0.27806088 0.017900722 0.81265575 0.36489448 0.34521192 -0.43802127

lstm.bias_ih_l0 f4 [256]
00000000: df38 c93d 01b5 233e 4807 a53c a32a 13be
00000010: 94f4 2d3e ae8e 06be 41f7 073e 3122 703e
00000020: 2438 213e bc48 043d 82e2 423e b259 fa3b
00000030: f29e 9abb 0c64 d7bd e2e7 d03c 7ad6 443e
00000040: f01f 993e 7593 053c d5c8 a03e a562 573e
00000050: 2cd0 613d 9335 c13e 80b1 f73d 8a0d f43d
00000060: 1ab7 883d 8dd6 e43e e40e 023e 2ae4 cebe
00000070: 5c02 4a3e 5d3a 0bbd 14ce 233e 47fd 45bd
00000080: 22be 193e 0cce 293e 9937 5d3c 7828 753e
00000090: 453b be3e 7ce3 3fbe ec5d 64be a390 4e3e
000000a0: 3a26 88bd 4795 d33b f512 3d3e f5a3 05be
000000b0: e6f7 acbe 0b64 aa3e 37e4 2a3e 2504 38bd
000000c0: 99bc 1cbe 03f2 9ebe 86e9 bc3e 6092 703e
000000d0: b1ff 143e 6f55 073e 437e ae3e 36f3 37be
000000e0: 4f86 dabc 7b7f 213e 73b0 103c fdd6 6ebc
000000f0: 86e3 d83e 2bad b93e 21e9 803e 2599 703c
00000100: bebf 95be c247 28bf 0cc0 d4be cd83 ddbe
00000110: b5f2 22bf de5a 32be d132 51bf d93e c8be
00000120: c335 bfbe 033f 08bf 8a26 58bf 5177 39bf
00000130: 1951 06bf e29b 04bf 2ff5 13be f1d7 09bf
00000140: d37b 0cbf ef46 1abf 2b5e 58bf 524b 2ebf
00000150: 3f75 31bf 75d6 f8be 6ea4 04bf 714f 39bf
00000160: 2a33 613e bc1f 1c3d 635d 7cbe 0641 4ebf
00000170: ddbf a9be 7223 ecbe 38cd 82be c363 c8be
00000180: 5b90 fcbe 080b 91bf 1768 18bf ca74 63be
00000190: eb1e 62bf 8104 aabe 8192 663d 83a9 bbbe
000001a0: 14f5 edbe 1441 c9be 4d0d 74bf 55c5 03bf
000001b0: a7a6 87be 8dbc 37bf c654 17bf 6d2f babe
000001c0: edf9 01be 86d4 f4be 7feb 56bf e993 66be
000001d0: 59bc 3cbf f24a f9be 3632 59bf 0392 aabe
000001e0: c7ea 03bf 1fbc 31bf 83e0 1cbf 8f0d 8abe
000001f0: b157 4cbf ba2a 07bf 694b 9ebe 8d5d c7be
00000200: 18bb 943c 6fab f83b eed8 bdbd 611a debd
00000210: 842d 0c3e af8a 803c e2da 0f3e 984b 0d3e
00000220: ff0c 31bd 4913 19bd 6032 313d 0db3 aebd
00000230: c7d4 44be a826 75bd bafe 943c 45e4 083d
00000240: 80bf 473e c977 1cbe 5eef 073e ea1e 0cbe
00000250: e42e 34be 2aa8 0cbd 15a7 36be 43db 043e
00000260: 4d18 fa3c 079b be3d 84da 3a3e c45f 1e3e
00000270: 697e a73c 5176 2d3e dc93 eebd b02c d53c
00000280: 6a46 08be fb6f 9ebe 8be5 2c3d d216 4c3e
00000290: 3b13 363e ef0a 19be 5d57 b73d 4a9b cc3d
000002a0: b261 f1bd e80e 2abe 43ad 633e fbd6 a93d
000002b0: 48d7 02be 7c13 bb3c ad19 c93d 80f0 50be
000002c0: fdd7 843e 41ec 0cbe f01f 1cbe 044f 1a3d
000002d0: ee47 1e3e f6f0 1d3e 0c7d 833e e4db 4ebd
000002e0: 2bbf 5c3e 17d7 5abe 8cad 413e 4531 7c3d
000002f0: 9c34 923d 61aa 813e 5e11 343e af1e 16be
00000300: 709c c53e 4a0d 6a3e 82d6 213e e3b1 2f3c
00000310: 1d2e 303e 29fd 21be 7df6 173e 88eb 893e
00000320: 2c89 5a3d 017b 353e 4856 983e 3ce1 383d
00000330: de89 6cbe c4bc acbd 997a f13d 4acf a73e
00000340: 3bdb dc3e a36a 323d a983 c63e 2bad 3a3e
00000350: 04a6 d73d 1bca cb3e cc09 db3e 3dfe 593e
00000360: e903 70bd d1cd e23e 60a8 9a3e ab54 91be
00000370: 3c75 be3e 2a4f 013e 9268 24bb 4625 b2bd
00000380: 9819 c03d 468a 7f3e 934d f13d 9ab6 f53d
00000390: 920d f53e 28f4 5cbe bee2 78bd 156d 973e
000003a0: fb88 15be 04b9 cfbc 0c6d 3a3e c93c 26be
000003b0: d5bf babe c2c6 db3e 2c66 923e 71fd 8ebd
000003c0: bf5c 08be 978d 89be 763a 6c3e ff2a ea3e
000003d0: 9801 103e 6a6f 6d3e 0d8e 6b3e 66a5 8fbd
000003e0: e78c f8bd dfb2 3f3e 1ac3 863b 631f 783e
000003f0: 3fac ed3e 6e29 e73e 7744 8e3e cb1d 9f3d
0.098253004 0.15987016 0.020145074 -0.14371733 0.1698783 -0.13140365 0.13277914 0.23450543
0.15744072 0.032295927 0.19031718 0.007640087 -0.004718655 -0.10517129 0.025501195 0.19222441
0.2990718 0.008152832 0.31403223 0.21033724 0.05513017 0.37736186 0.12094402 0.11916645
0.06675549 0.4469494 0.12700993 -0.4040845 0.19727463 -0.033991206 0.15996581 -0.048337247
0.15013936 0.16582507 0.013502025 0.23941219 0.37154594 -0.18739122 -0.22301453 0.20172362
-0.06647916 0.006457004 0.18464263 -0.13050826 -0.33782881 0.33279452 0.1668862 -0.044925828
-0.1530632 -0.31044015 0.36896914 0.23493338 0.14550664 0.13216184 0.34080705 -0.17963871
-0.026675371 0.15771286 0.008831131 -0.014577624 0.42361087 0.3626493 0.25177863 0.01468495
-0.2924785 -0.65734494 -0.4155277 -0.4326462 -0.6365159 -0.17417476 -0.81718165 -0.3911045
-0.37345704 -0.5322115 -0.84433806 -0.7244769 -0.52467495 -0.5180036 -0.14448999 -0.53845125
-0.5487644 -0.60264486 -0.8451869 -0.6808368 -0.6931953 -0.48601118 -0.518134 -0.7238684
0.21992174 0.0381162 -0.24644999 -0.8056797 -0.33154193 -0.46120793 -0.25547194 -0.39138612
-0.49328884 -1.1331491 -0.5953383 -0.2221252 -0.8832843 -0.3320656 0.05629206 -0.36652765
-0.46476042 -0.39307463 -0.95332795 -0.5147298 -0.26494333 -0.7177208 -0.5911373 -0.36364308
-0.12692995 -0.47818393 -0.8395309 -0.22517361 -0.73724896 -0.4868999 -0.8484224 -0.33314523
-0.51530117 -0.69427675 -0.6128008 -0.2696347 -0.79821306 -0.5279957 -0.30916908 -0.3893856
0.01815562 0.007588796 -0.09269892 -0.10844875 0.13689238 0.01569113 0.14048341 0.13798368
-0.043225285 -0.037371907 0.043260932 -0.08530245 -0.19221793 -0.05985132 0.01818787 0.03342082
0.19506645 -0.1528007 0.13274905 -0.13683668 -0.17596012 -0.03434006 -0.17837174 0.12974267
0.030529166 0.09306913 0.1824742 0.15466219 0.02044602 0.16939665 -0.11649296 0.026022285
-0.13308111 -0.3094481 0.042211097 0.1993058 0.17780773 -0.14945577 0.0895221 0.099905565
-0.11786212 -0.16607249 0.22234063 0.082929574 -0.12777436 0.02283644 0.098193504 -0.20404243
0.25946036 -0.13761999 -0.15246558 0.03767301 0.15457126 0.1542395 0.2568134 -0.050502673
0.215573 -0.21371113 0.18913859 0.061570425 0.07138941 0.253253 0.1758475 -0.14660142
0.38595915 0.22856632 0.15804484 0.010723564 0.17205091 -0.15819229 0.14840122 0.2693751
0.053353474 0.17722704 0.29753327 0.045136675 -0.23099467 -0.08434442 0.11790962 0.32775337
0.4313601 0.043558728 0.38772324 0.18230121 0.10529712 0.39802632 0.42780912 0.2128839
-0.05859748 0.4429765 0.30206585 -0.2838491 0.37198818 0.12627855 -0.0025086743 -0.086985156
0.093798816 0.24955091 0.11782374 0.11997719 0.47861916 -0.21577513 -0.060763113 0.2957541
-0.14603035 -0.025356777 0.1820566 -0.16234125 -0.3647448 0.42925078 0.28593576 -0.06981934
-0.1331663 -0.26865837 0.23069176 0.45735928 0.14063108 0.23187032 0.23003407 -0.07013969
-0.1213625 0.18720578 0.0041126134 0.24230723 0.46420476 0.45148796 0.2778661 0.077693544

lstm.bias_hh_l0 f4 [256]
00000000: eaa2 493e a444 04bd 0d78 443d 0384 97bc
00000010: 85cb e73d 25c0 44be a9e4 573e ffb0 9f3d
00000020: 763e 06bd c567 2f3e 4271 b83e 6176 883c
00000030: cafa bdbd 59e1 3ebe a579 0f3e 1ca7 af3e
00000040: a84b a63e 3873 c13d 5648 5f3e 2b9f 743d
00000050: 13c4 b5bc bf15 ff3e ecd1 923d a24e ee3d
00000060: f023 973d 508b fd3e 65bd e03d ba80 cebe
00000070: 7837 bf3e 2e0f c0bd 3612 c03d 805f aebc
00000080: be7e 09bd 44c2 c83e 3f37 bfbd 8403 603e
00000090: b57e 983e d55d 18be 843b babc 436d 3e3e
000000a0: 0f97 37bd f203 4b3d 7f71 0fbd e0bb b1bc
000000b0: 2abf b9be 151b 273e dd88 a23e e330 d6bc
000000c0: c652 89be 658d b3be c698 bf3e 7105 a13e
000000d0: d11d 013e e1b5 243e 97ad c03e c4a1 6ebe
000000e0: 37db a4bd 3f4f 353e 15b7 843c 6898 513d
000000f0: 415c 163f e735 763e e41c 973e e8d9 283e
00000100: c3fe 84be 4402 1cbf e46e bfbe 7cf2 aebe
00000110: 1737 41bf 8a40 4abe ff32 6bbf 5ccc 94be
00000120: 8965 dbbe 2d0f f3be 6834 50bf 0702 31bf
00000130: fca8 edbe 59b4 d6be e03c 55be f085 26bf
00000140: a87f 09bf cf2a 11bf bb9b 70bf da56 f4be
00000150: 57bb 17bf 3dd0 d6be e7a4 19bf 2267 31bf
00000160: 0c57 623e d5aa 14be 5d49 97be 30a7 4dbf
00000170: 4f9d 9fbe 368f 01bf f5bc 98be 87fb 68be
00000180: ad6f 12bf 6f43 86bf e061 efbe 1827 4fbe
00000190: 4df4 4abf 35c5 cbbe 92fe 753c 351e c0be
000001a0: 9e48 fbbe 0244 0ebf d336 4cbf 2fce 11bf
000001b0: 5ab0 a6be def7 2dbf 7064 23bf f9a8 dabe
000001c0: cbd3 0e3d 6c82 f0be 8d9e 54bf 0706 62be
000001d0: 4b51 41bf 6991 17bf 02c3 7abf e306 a3be
000001e0: fa1e d3be c78b 4cbf 4982 0abf 54e3 8cbe
000001f0: 59e7 5abf e280 15bf 8f29 b0be 99b6 cdbe
00000200: 595d cc3d 577b 053e 2f88 963d 991c 48be
00000210: 1e33 a23d 067d 7a3e c0d8 583e ac17 8a3d
00000220: f675 1fbe fdd9 51be bb51 4a3e c0f2 ecbd
00000230: d41c 2fbd 4bc2 07bd 780a 63bd 0f6d 103d
00000240: e9b0 723e 2884 e5bd bc9f 1a3e 2037 8fbc
00000250: c87e d4bd e28f 1d3d ec48 54bd 29dc 5e3e
00000260: 8bda 14bd 7f37 df3d b17d df3d a2e8 373e
00000270: 4a3b 04be 7b45 5c3e d041 db3d 1f38 e73d
00000280: 30c2 debc 2141 51be 3a0a a7bd 4f9b d7bc
00000290: e9c9 3c3e 92de 57be ae04 053d 7a5e 80bd
000002a0: 2d6c 85be 4d66 efbd 21f3 523e 5fd9 8bbd
000002b0: 53eb 79be 06c4 44be 994f 2ebc f281 2bbe
000002c0: e437 833e f6e5 14be 0c43 43be e85a 51bd
000002d0: 3432 8d3e ecfc 233e d744 2a3e 0458 6dbd
000002e0: 2f13 e83d 9733 f3bd f0da 353e fb7e 04bd
000002f0: f5ba 04bd 89b8 1e3e a423 423e f9d2 2dbe
00000300: 6821 853e 3b33 523e f19d 783e ff24 39bc
00000310: 5a7d f93d 0e57 f3bd a834 893d e318 c03e
00000320: 296b 233e bc91 3d3d a8d9 b73e 3fe8 813e
00000330: cb07 d9bd 0cf5 65be 58eb 7c3e baab a93e
00000340: 972a 933e 7f2d c13b c9a5 d43e 459a 303e
00000350: 358b 9fbd 73b5 083f 41fb 6f3e 21d2 403e
00000360: 412d 22bd ef57 0f3f 504f 8d3e 1f43 a2be
00000370: aadb d33e 2b11 86bd 3967 653d 3316 20bd
00000380: c04f 52bd 279c 523e 39fa ffbc b779 d53d
00000390: d2cb c13e aaf3 28be 2a58 f4bd 5bec 563e
000003a0: 8f31 90bd ee56 7fbe e7e7 6b3c 9f87 5fbe
000003b0: 0283 62be 04eb ac3e 3061 573e da2c 01be
000003c0: 4b5a 44be 2fc5 d1be f7f0 c93e f7ea e73e
000003d0: 1bf4 073e 772e 2e3e 8dbd b83e a005 c0bd
000003e0: 30f9 c2bd 1a6d e93d ccd4 2cbe b0c5 3f3e
000003f0: 6fdd 063f 0c0d e53e 10c4 763e 451a 203e
0.19691053 -0.032292023 0.04796605 -0.018495565 0.11318115 -0.19213922 0.2108332 0.07797431
-0.03277441 0.17129429 0.3602391 0.01665801 -0.0927635 -0.18640651 0.14011247 0.34307182
0.32479596 0.09445804 0.21804938 0.059722107 -0.022188222 0.49821278 0.07168946 0.11636092
0.073799014 0.4952035 0.10973624 -0.40332586 0.37347007 -0.09377895 0.093784735 -0.021285772
-0.033568136 0.39210713 -0.09336709 0.21876341 0.2978417 -0.14879544 -0.022733457 0.18596368
-0.044821795 0.04956431 -0.035020348 -0.021696031 -0.3627866 0.16318925 0.31745043 -0.026146358
-0.26820964 -0.35068813 0.37421244 0.31449464 0.1260903 0.16085006 0.3763244 -0.23303896
-0.080496244 0.17706011 0.016200582 0.051170737 0.5873452 0.24044 0.2951423 0.16489375
-0.25975618 -0.6094096 -0.3738929 -0.34169376 -0.75474685 -0.19751182 -0.9187469 -0.29062164
-0.42850903 -0.47472516 -0.81329966 -0.6914372 -0.46417987 -0.4193447 -0.20824003 -0.6504812
-0.5371041 -0.56705946 -0.93987626 -0.47722512 -0.5927023 -0.41955748 -0.60017246 -0.69297993
0.22103518 -0.14518292 -0.2954816 -0.8033323 -0.31174704 -0.5060915 -0.29831663 -0.227522
-0.57201654 -1.0489329 -0.4675436 -0.20229757 -0.79279023 -0.39798895 0.015014308 -0.37523046
-0.4907884 -0.5557252 -0.79771155 -0.56955236 -0.3255642 -0.6795634 -0.6382513 -0.4270704
0.03486995 -0.46974504 -0.8305443 -0.22072612 -0.7551467 -0.59206253 -0.9795381 -0.31841192
-0.4123457 -0.79900783 -0.5410505 -0.27517188 -0.8550926 -0.58399785 -0.34406707 -0.40178373
0.09978742 0.13035332 0.07350194 -0.19542159 0.07919906 0.24461755 0.21176434 0.06742796
-0.15572342 -0.20493312 0.1975774 -0.115697384 -0.042752102 -0.033144277 -0.055429906 0.035260256
0.23700298 -0.112068474 0.15099996 -0.01748234 -0.10375744 0.038467295 -0.051827356 0.21763672
-0.03634123 0.10899257 0.109126456 0.17959836 -0.12913242 0.2151088 0.10705912 0.11290001
-0.027192205 -0.20435001 -0.081562474 -0.026319174 0.18436398 -0.21080998 0.032475166 -0.0626802
-0.26059094 -0.11689434 0.20600559 -0.068285696 -0.24406175 -0.19215402 -0.010639095 -0.16748789
0.2562858 -0.14540848 -0.19068545 -0.051112086 0.27577364 0.16014451 0.16627823 -0.057945266
0.11331784 -0.11875074 0.177593 -0.03234766 -0.03240486 0.15500082 0.18958908 -0.16975011
0.2600205 0.20527355 0.24279 -0.011300324 0.12182112 -0.11881839 0.066994965 0.37518987
0.15958847 0.04628156 0.35908246 0.25372502 -0.105971895 -0.22456759 0.24699152 0.3313883
0.2874343 0.005895316 0.41532734 0.17246349 -0.077902235 0.5340187 0.2343569 0.18830158
-0.03959394 0.5599355 0.27599573 -0.31691834 0.41378528 -0.06546243 0.056006644 -0.03908367
-0.051345587 0.2056738 -0.031247245 0.10423606 0.37850815 -0.164992 -0.119308785 0.209886
-0.070407026 -0.24935505 0.014398552 -0.21829079 -0.22120288 0.33773053 0.21033168 -0.12614766
-0.19175069 -0.40970752 0.39441654 0.4529645 0.13276713 0.17009912 0.36082116 -0.09376073
-0.09520185 0.113977626 -0.1687805 0.18727756 0.5268163 0.44736516 0.2409823 0.15635021

lstm.weight_ih_l1 f4 [256, 64]
00000000: a6db 4d3f 4122 393e ed2d 293e 92a1 3cbe
00000010: 9014 b53d d03e 593d 8446 c4bd 6101 f4bd
00000020: 9da9 7abe 7fdd 8bbe 2bdc 783e f031 bfbe
00000030: 2e1f 24be 4300 d1be a7ce edbe 2249 993d
00000040: 8b86 c5be 574b 4bbe 5c6a e23c 1f57 aebe
00000050: 2260 063d d709 8c3e f456 0ebf ff45 e4bd
00000060: 9cd7 48bf 8024 d23d 5d61 83be 672a 373f
00000070: be46 43bf 536b 98bd ae55 0cbe 185f 083e
00000080: 1848 20bf ec8c 873d 5a70 cd3d 9c18 af3e
00000090: d93d 983e 771a 1ebe e446 6d3f 4a09 bd3e
000000a0: 8de3 73bf 1b58 e2bb 18b4 0bbb e38a be3e
000000b0: afff cdbe 175e edbe 7e0b a03e e251 123e
000000c0: 58d7 7c3d fe06 24bf bb16 f3be 3d4f ffbe
000000d0: 130e 9abb 6e9d a33d 34d0 d4be b21d ae3d
000000e0: de6b 283f 84cc f0bc b169 763d 37e4 45be
000000f0: d1b9 3b3c 1829 2ebf b13f 40bc 37b8 afbe
00000100: 1cdc d23e 4029 1ebf add0 b23f 7f32 443f
00000110: b5c5 7fbf f4c6 80be 3366 f8be 341b ba3e
00000120: 15f9 403d 7c78 d03e ae89 7dbf 8459 583f
00000130: 2bac 893e 637d 453d 1274 77bf 3154 8fbe
00000140: 9cc2 203e 5e52 d13e 36d6 75bf e98b cb3e
00000150: ef10 16bf 4b2a 843f f8fd bf3f 2a64 3a3e
00000160: 4bef e4be d865 ddbf fccc c4be 1b93 9dbe
00000170: df19 c1be a63c 78be 0852 d6bc bacb a3bf
00000180: 9f4d 783e e1f6 1c3f 0a43 96bd 8b57 3b3e
00000190: b7cb 96bf beb1 263e 269b 0cbf fda7 f03e
000001a0: 1d9e 21bd 41f8 493e 87a2 d8be 4b44 27be
000001b0: 8a90 843e 04d9 b83f 19ae 48bf e356 583e
000001c0: 507d 09bf ee4d 1ebc 6de3 a33f bac3 20bf
000001d0: a38f 9dbe 15a9 efbe 1872 0dbf f2fe 92bc
000001e0: 3093 79be dc26 9c3e a85a 97be f89c 91bc
000001f0: 76f2 20bf e8e8 913e 1de4 c0bd eabf 723d
00000200: b111 85bd 63ff d83c d582 edbe 0401 60be
00000210: dc28 9b3e ceda f23d 78fc 0a3f 50fc 703e
00000220: 5a9d fabc ebb3 b4be e1cf 7e3e 7317 f0be
00000230: 9df2 3cbe 727f 9bbe 9a71 033f 044f 0e3e
00000240: c34d 853e af97 06bf e490 243f 1eaf 38be
00000250: 76b9 84be 0944 62be 5a5f 53be 3279 a63e
00000260: 42e3 283e b2b1 e33e bbb8 193e d55c 693e
00000270: 6fcc debd cdd2 963e ea61 cb3e 4a1d 773e
00000280: 8680 d73c ce1f 14bf 7ea2 e3bd 8aab 233e
00000290: 110f 0c3f 3a7d 11be 8f52 983e 109b bbbd
000002a0: 0a46 26be 1e02 cebe d78c 6f3e 2559 a4bd
000002b0: 9f7a 62be 55f9 00be 2452 8d3e 5456 c1be
000002c0: 770c 903e 5512 78be c594 99be ecad 933d
000002d0: b490 f83e f207 ad3e 487a 313f a1be 5a3e
000002e0: 8c04 803e 7c0a 0bbf 8598 2c3f c0b6 ba3e
000002f0: 9b87 9cbe 4c55 9f3e e1ac b83d ef75 7cbd
00000300: 8eb9 a23e 6034 8abd e5f6 2ebe a374 e53d
00000310: 4e67 4a3d 57f5 3f3e cdcf b53d 4ef1 083f
00000320: 6410 f5be 1562 823d 6079 b73d d21c 3ebe
00000330: cfa2 1fbe 07e9 88bd b2ae cf3e 80eb 2a3e
00000340: fe4d d13e e3ad cc3d 1e42 913e 7e52 75be
00000350: d5af e43e 1b79 47bd b8fc ae3c c773 e53e
00000360: d956 49be 99fd 813e 8154 0d3f 6c25 803d
00000370: aff6 adbe f7bb d43d 596f 3cbe 2bf1 c3bd
00000380: de11 7cbe d27a 36be aaa2 2fbd 2321 7e3e
00000390: 2a8e 7f3e 5336 a5bc f9e4 af3e d055 83bd
000003a0: 5e3c 5dbd e0cc 913a e9b1 03bd 3e25 db3c
000003b0: f7ef 353e 8004 0ebe a0fa e33c 4c97 313e
000003c0: 767e 2d3c f4ea 90bd b8eb a9be 77fe d93d
000003d0: f1f7 443d 9970 0c3e 8904 3a3e a278 67be
000003e0: 8e52 d9bd 92c7 7aba a46a 40be dd9c 9a3e
000003f0: 2435 86bc 66dd 0a3f b3f4 363d 6b6a 3dbd
0.8041328 0.18079473 0.16521426 -0.18421009 0.088418126 0.05303842 -0.09583762 -0.119143255
-0.24478765 -0.27317426 0.24302737 -0.37342787 -0.16027519 -0.40820512 -0.46446726 0.07484652
-0.3857921 -0.19852959 0.027638607 -0.34050843 0.032806523 0.27351257 -0.5560143 -0.11146163
-0.78453994 0.10260868 -0.2566022 0.71549076 -0.7627982 -0.074423455 -0.13704559 0.13317525
-0.62610006 0.066186756 0.10031195 0.34198463 0.29734686 -0.15439783 0.92686296 0.3692115
-0.9526909 -0.0069074756 -0.002131706 0.37215337 -0.40234134 -0.46360847 0.31258768 0.14289048
0.061728805 -0.6407317 -0.4747828 -0.49865142 -0.004701385 0.07989012 -0.41565096 0.08501758
0.6578959 -0.029394396 0.06015939 -0.19325338 0.011457876 -0.68031454 -0.011733935 -0.34320232
0.41183555 -0.6178169 1.3969933 0.7663955 -0.9991105 -0.2515179 -0.48515472 0.3634888
0.047112543 0.40716922 -0.9903821 0.8451159 0.26889166 0.04821528 -0.96661484 -0.2799392
0.15699238 0.40883154 -0.96029985 0.3975518 -0.5861959 1.0325407 1.499938 0.18202272
-0.44713816 -1.7296705 -0.3843764 -0.30776295 -0.3771505 -0.24241886 -0.026162162 -1.2796547
0.2424836 0.6131421 -0.073370054 0.18295114 -1.1780919 0.16278741 -0.5492424 0.47003165
-0.03945743 0.19723608 -0.423115 -0.16334645 0.25891525 1.4441228 -0.7839065 0.21126895
-0.53706837 -0.009662135 1.280378 -0.62798655 -0.3077365 -0.46808687 -0.5525222 -0.017943833
-0.24372554 0.30498397 -0.29561353 -0.017775044 -0.62869966 0.28498006 -0.09418509 0.059265055
-0.06497515 0.026488965 -0.4638888 -0.21875387 0.3030461 0.1185814 0.54291487 0.2353375
-0.03059261 -0.35293517 0.24883987 -0.4689289 -0.18451925 -0.3037067 0.5134522 0.1389733
0.2603589 -0.525752 0.64283586 -0.18035552 -0.25922745 -0.22096266 -0.20641842 0.3251434
0.16492942 0.44471508 0.15011875 0.22789319 -0.10878836 0.29457703 0.3972314 0.24132267
0.026306402 -0.5786103 -0.11114977 0.15983406 0.5471049 -0.14207926 0.29750487 -0.09160435
-0.16237655 -0.4023599 0.2339357 -0.080248155 -0.22117089 -0.12595113 0.2760173 -0.37761176
0.2813451 -0.24225743 -0.29996315 0.07210907 0.485479 0.33795124 0.6932721 0.21361782
0.2500347 -0.5431287 0.67420226 0.36467552 -0.3057221 0.31119764 0.09017349 -0.061635908
0.31782192 -0.06748271 -0.1708637 0.11203887 0.049414925 0.18745933 0.088775255 0.534932
-0.47864068 0.06366364 0.08958697 -0.18565682 -0.1558945 -0.066850714 0.4056297 0.16691399
0.40879816 0.09994104 0.28370756 -0.2395725 0.446654 -0.04869948 0.02136074 0.44814894
-0.19662036 0.25388792 0.5520707 0.06257138 -0.33977267 0.10387414 -0.18401851 -0.095674835
-0.24616191 -0.1782029 -0.042879738 0.24817328 0.24956575 -0.020167505 0.3435438 -0.06412852
-0.05401265 0.001112368 -0.03215209 0.026751157 0.1776732 -0.13868904 0.027829468 0.17342871
0.010589233 -0.07076064 -0.33187652 0.106442384 0.048088018 0.13714828 0.18165793 -0.22604612
-0.10611449 -0.00095664815 -0.1879068 0.30197802 -0.016382761 0.5424408 0.044666957 -0.046244066

lstm.weight_hh_l1 f4 [256, 64]
00000000: 8bd0 85be 4682 623f 3031 5a3e 5cea 0e3f
00000010: 5c96 8f3e 0b7d a8be 2e50 c7be be9c 073f
00000020: df82 d5be 29d0 0b3d cb1b 043e c755 c0be
00000030: 9a5b 81be ffe4 c83d 2169 adbe 535a 103f
00000040: 552b 55be 7ac5 783e 7385 0bbf e3c0 8e3e
00000050: 3ee3 b33e 2da3 623e 8d04 1ebe e3fc c83e
00000060: 0f71 f7bd 2cb2 a93e 28a0 cb3c 461e 593e
00000070: 6e51 403f 7aac afbe 2f5e 2b3e 0d04 e33f
00000080: f0b2 85be dbc6 02bd d80d be3d f70e c7be
00000090: 63d9 b1be d881 463e 240a 10be c8a5 1e3e
000000a0: d744 eabd 40d1 2a3e 232c b23e 9c73 e6be
000000b0: 1107 86be 0df1 8abe 493f 15bf f098 d63d
000000c0: cc7a aebd 626e e23e f48c c53e 6049 483e
000000d0: 1be8 e03d 40b3 05bd 4df7 833e 30a0 f33e
000000e0: 391b da3e 3fe7 883e ed27 35bf 8307 d23d
000000f0: 8f63 b73e 3a6c 253f 4c7a 223f ef84 853e
00000100: 7216 a23c 4281 a3be c27c c23c 4327 8cbd
00000110: a68a f8be 6761 c3bc f2c2 a63e f1df 04be
00000120: e80c 8cbe 4d80 08be b473 2cbe 2ecb 52be
00000130: 2009 343d fe37 b1bd 9090 9dbe 1ea7 80be
00000140: b820 993d 231e a8bd 83be a73d 394f cfbe
00000150: 32dd 013e 65c8 653c 8492 483e 69a5 473d
00000160: 94dd 8e3e 20e1 923d 317c 8f3e a874 f9ba
00000170: e0c6 d0be cc21 de3e a171 11bd b4d4 633e
00000180: efb0 25be 57e3 6f3d f5d7 553e 65d1 003e
00000190: 384d cd3d 46b3 5c3d 01db f7be 3593 afbd
000001a0: f551 0abe 5e92 1cbe 76a4 cabd 26ee 5e3e
000001b0: 42ba 33be 6953 d03d 41fd 45be 0cb4 103e
000001c0: 9c94 62bd 13b6 29be 4543 39bd 4ccc 0fbe
000001d0: 70f0 643d 1c0c 77bd 37b3 8cbd 883b cb3d
000001e0: f1b1 85bd 0c16 ccbd d499 633f b16f 743c
000001f0: 28f0 383d 36df afbe e161 41be 699a cdbd
00000200: 2b84 023f 774b c8be 570b aebd 97a4 7abe
00000210: 95cf 6dbf ff41 bd3e 84f4 ea3d 7f32 cdbd
00000220: 8662 593e 5f00 1bbe 8766 2abe 3abf 00be
00000230: 0c5b b13e 7aae 1e3f b0de 093f 74f8 d1be
00000240: 5fdb 163e 0d80 14be b2fe a8bd 79f1 babe
00000250: 8669 bf3e 4d4e 863d 275e 923d 44e2 94be
00000260: edec 963c a353 7b3d dc49 ce3e b120 2abe
00000270: 1bf6 21be e888 273f 600b 5dbe 8189 a03d
00000280: 80f7 adbc f09e 943e 5e0c 33bd 39ae 693e
00000290: 1eab 2cbc f87c 083d c7f9 b33e 097e 58be
000002a0: 8891 813d 04dd d1be 3b35 1abe 478e 4e3d
000002b0: df9b 97be d191 ec3e 44a5 233f 8421 b6be
000002c0: cc69 40bd c43f f5be a214 a9bd 1c8d 1e3e
000002d0: 63eb 443e 5bc4 1c3e d185 83be 9a9c 533e
000002e0: cfc2 d7bd 2f7a 63be ca23 0c3f f0c0 753d
000002f0: 8e04 f6bd 041e 4ebe 49f8 aabc 75c3 983e
00000300: eea9 c83d 1dbf 67be 139f debc d589 52be
00000310: aae7 1fbe d3f1 0cbe 9382 183e f13c e7bd
00000320: 0a82 3a3d 7680 6dbe a533 86be 9fbe 01bf
00000330: e5a5 883d ceda 32be 89a7 373e dd8e 16be
00000340: d354 d23d ca4a 48be 11b8 ec3d 2ef8 023d
00000350: 8966 a1bd 59d1 c0bc fd14 473d 3542 203d
00000360: 6c50 8f3e 9477 08bd 0f0a 0b3e 6b25 6cbd
00000370: 2b36 d53d a90d 583e 358d 28be adee 203d
00000380: 7dac ef3e 0aab c5bd 1a48 2dbe 0b2c 9d3e
00000390: 99d0 0b3e abe1 b53e f567 b8be 33fa 9fbe
000003a0: c735 aabd 3661 533d 970f 9abe a8a9 b13d
000003b0: 3f53 3bbe e9a6 16be 2def 7b3d fbb5 ac3e
000003c0: fd90 9abd f327 983e abb3 8ebe 802a d5bd
000003d0: b129 b9be 567b 4abe c170 c3bd dfb0 61be
000003e0: eb8d 95be cadb 59be a47e 723e 6ba1 61bd
000003f0: 944e 0ebe a58b 83be 6c80 f9bb 9fe9 a5be
-0.26135668 0.8848003 0.21307826 0.55826354 0.28044403 -0.329079 -0.3892836 0.52973545
-0.4170141 0.034134064 0.12901227 -0.37565443 -0.252652 0.098093025 -0.3386927 0.56387824
-0.20817311 0.24294081 -0.545005 0.27881536 0.3513431 0.22132559 -0.15431423 0.39255437
-0.12082111 0.33143747 0.024856642 0.21202955 0.7512425 -0.34311277 0.16735147 1.7735611
-0.2611308 -0.031927925 0.09279984 -0.38878605 -0.34736165 0.19385469 -0.14066368 0.15492928
-0.114389114 0.16681385 0.347993 -0.45010078 -0.26177266 -0.27137032 -0.5829969 0.10478389
-0.085195154 0.4422484 0.385841 0.1955924 0.109817706 -0.03264165 0.25774613 0.4758315
0.42598894 0.26738927 -0.70764047 0.10255339 0.35818145 0.64618266 0.6346786 0.26077983
0.019786093 -0.31934553 0.02374113 -0.06843426 -0.4854328 -0.023850156 0.32570606 -0.12976052
-0.27353597 -0.13330193 -0.16841012 -0.2058532 0.043954015 -0.08653258 -0.30774355 -0.251275
0.07476944 -0.08208873 0.08190634 -0.4049013 0.12682036 0.014024829 0.19587141 0.04874173
0.27903426 0.071718454 0.28024438 -0.0019031959 -0.4077673 0.4338516 -0.035508756 0.22249109
-0.16180776 0.058566418 0.20883162 0.12579878 0.10024494 0.053881906 -0.48409274 -0.085729994
-0.13507827 -0.1529021 -0.0989465 0.21770534 -0.1755152 0.10172159 -0.1933489 0.14131182
-0.055317506 -0.16573362 -0.04523017 -0.14042777 0.05589336 -0.060314283 -0.0687012 0.09923464
-0.0652808 -0.099651426 0.889066 0.014919207 0.045150906 -0.34349984 -0.18884994 -0.10039217
0.5098292 -0.39120075 -0.08498257 -0.24476849 -0.9289487 0.36964414 0.11472419 -0.10019397
0.2122899 -0.1513686 -0.16640674 -0.12572947 0.34639776 0.6198498 0.5385542 -0.41009867
0.14732121 -0.14501972 -0.08251704 -0.36512354 0.37385195 0.065579034 0.071468644 -0.29078877
0.018423522 0.06135906 0.40290725 -0.16614033 -0.15816538 0.6544328 -0.2158637 0.07838727
-0.021236181 0.2902751 -0.043712966 0.22820367 -0.010538844 0.033322304 0.35151502 -0.21141829
0.06326586 -0.40988934 -0.15059368 0.050428655 -0.29611108 0.46205 0.6392405 -0.35572445
-0.046975896 -0.47900212 -0.082558885 0.15483516 0.19230418 0.15309279 -0.2568803 0.20665208
-0.10535204 -0.22214578 0.5474211 0.059998453 -0.120125875 -0.20128638 -0.020870345 0.29836622
0.097980365 -0.22631498 -0.027175462 -0.20560391 -0.15615717 -0.13764124 0.1489356 -0.112909205
0.04553417 -0.23193535 -0.26211277 -0.5068149 0.06672267 -0.1746628 0.17935003 -0.14702936
0.10270085 -0.1955978 0.115585454 0.031974964 -0.07880885 -0.023537325 0.048604 0.03912564
0.27991045 -0.033317164 0.13578056 -0.057652872 0.10410722 0.21098961 -0.16460116 0.03929012
0.46811286 -0.09651764 -0.16922036 0.30697665 0.13653792 0.35523733 -0.36016813 -0.31245574
-0.083110385 0.05160638 -0.3009002 0.086749375 -0.18293475 -0.14712109 0.061507393 0.3373259
-0.075471856 0.2971798 -0.2787145 -0.10408497 -0.3616462 -0.19773611 -0.095429905 -0.22040127
-0.29209837 -0.21275249 0.23681122 -0.05508558 -0.13897163 -0.25692478 -0.007614186 -0.324048

lstm.bias_ih_l1 f4 [256]
00000000: 43b2 623e 8cc9 103d f29a 783d 4c75 b2bd
00000010: ffd1 413f 8cd6 903e 52f4 ef3c 3d48 973e
00000020: 1fb8 e93e 9907 c83e 00f2 933e b03c 0b3e
00000030: 3851 2f3f 53a9 933d 1967 3e3f 6f9e 68be
00000040: 6685 eabd 4ca9 28bd 29b1 56bd 7b24 0a3f
00000050: 9e25 1fbd 31c1 1cbe 66c6 adbd 379f 0d3f
00000060: 746d e8bd 1c19 98be 12eb 0d3f 74ba f23d
00000070: 8ed6 123e 7984 b13e 2e84 8fbe 72da 533f
00000080: 58c5 dabe 0377 823f a112 2d3e add1 8dbe
00000090: c145 7e3e f40c 133e 37e2 063f 2fde 6dbd
000000a0: 84ef 37be 9fb5 0a3f 5d0f 84bd 0433 06be
000000b0: 3d3d 8c3e e2f5 f03e da28 923e 223f 883f
000000c0: 9a73 06be be34 4c3b aa18 70bc f1d7 5dbd
000000d0: a108 923e 2668 f73d 7f50 dcbd de60 8f3e
000000e0: 25df 68be ab5e 0ebe 53e6 dfbd e834 51be
000000f0: 4994 acbe 91a6 2d3e ada4 43bd 6014 743e
00000100: 6858 0c3e be3c 7bbe 70b6 72bc 5a93 ddbd
00000110: 7065 ac3d 38e0 e5bd 29bb 8fbe ee4a d9be
00000120: 1fe2 853d c828 c23d 088d 433e fc76 13be
00000130: cddb a23d 0f49 223d b2bf 273e 1cc1 c13c
00000140: ba0e f3bc a92b 933d 5012 6dbe 9c33 16be
00000150: 80aa 8cbc c1aa 16bd a385 fcbd 743c 10be
00000160: 0447 bf3c d420 46be e74a 5b3d 1ed6 513e
00000170: 8326 2a3e af33 72be bdde e53c c65c 193e
00000180: b748 73be fa71 e13e 7c4c e5bd 30ce 873d
00000190: 0554 02be fd55 14bb 0153 593c db30 b7bc
000001a0: 2609 22bd 4c94 33bd 36e2 293e c5cb 743d
000001b0: 8204 7a3d 42cc b8be 9345 93bd 8628 d63e
000001c0: 70fa 2bbe 2c1a e1bd 5722 f03d 7b4b f6be
000001d0: 0c74 913e 9666 cdbc 368a bfbd c193 1fbe
000001e0: 8a47 5dbc 2934 66be 4f9a 723d 06d2 15be
000001f0: 7802 a7bd 82cf 5a3e 79ad f8bd 0217 8bbe
00000200: ab0f 1fbe 9ae8 1f3e 87c9 9b3e f0bf c63c
00000210: 2a36 bd3e eefc eebe d72c 1ebe 8409 dbbe
00000220: 9ee9 bdbd 1db4 de3e 96f8 8b3e 452a a0bc
00000230: 4d16 7abe c1b8 7abb c88b 12bf b641 db3d
00000240: 97ba 77be 4439 1e3e cd82 76be 15ac f0be
00000250: b86a 09bc 9fd3 403e 7568 65be d3dc c4be
00000260: 091c 8ebe 7f30 56bd 5b1a e6be 9fbd 2e3e
00000270: e2a0 aa3d ace6 703d d29e 1c3e a4c8 123e
00000280: 19eb 023e a149 373e 05e2 d6be 7b63 92bd
00000290: 5866 a6be de0e 1abe fa17 a7bd 8974 9e3d
000002a0: 8817 053e 564f 19bf 5fbe 6c3e ffbd 36be
000002b0: fb20 c73e 4fc9 e1bb 92b2 f0bd 7253 07be
000002c0: 8674 cf3d 21af bd3d a700 553e af36 de3d
000002d0: 06c7 a73e ecc4 733b a7e8 9b3d b0be 8b3c
000002e0: 4838 6c3e 0c80 4c3e deb6 0dbe a33c e83d
000002f0: cdd0 863e 42bb c93e 867c 8f3d f584 acbe
00000300: 8df2 a43e 26cc 303e b8ee debd 711f c1be
00000310: beaa 383e 357b 8a3e 8e15 64be 8527 4abc
00000320: 272c b63e 61bd 833e 4685 d43e 3702 053f
00000330: 63f2 e93e 4bdb 963e e28c a23f e3e0 8cbe
00000340: 1f0e 52be 177f f2bb d261 a43a 31b9 8e3e
00000350: a58a 183e e444 36bd 80d6 8bbe cc47 a73e
00000360: 2280 49be fbd1 10be a28c 1e3f 8e1b 353e
00000370: 4cdc f03d 37d2 bd3e 9be6 9abe efe2 093f
00000380: 708a 21be a55b 563f 6aee fb3e 3eeb d6bd
00000390: 109d 323e 96f9 68bd 9742 8b3e 8f23 09be
000003a0: 73f8 e4bd a1fe 103f a636 18bd 394c fabd
000003b0: 43fc 4d3e 09fc 553e 8990 d83e 45e9 5e3f
000003c0: 28b5 62be 7206 1a3c 8290 85bd 339b 69be
000003d0: 0341 183e ec18 0b3e d5dc ccbd 5698 f03e
000003e0: 384f c7bd 4276 9dbe 80ff 01be aa35 6ebe
000003f0: 0892 f6bd dd9d 033f 0ac9 8d3c 5da0 9c3e
0.22138314 0.03534846 0.060694642 -0.08713779 0.75711054 0.28288686 0.029291306 0.295473
0.45648286 0.39068297 0.2889557 0.13597369 0.68483305 0.072100304 0.74376065 -0.22716688
-0.11451225 -0.04117708 -0.052415047 0.53961915 -0.038854234 -0.15308072 -0.08485107 0.5532107
-0.113490015 -0.29706657 0.55436814 0.11851969 0.14339659 0.3467138 -0.28030533 0.82755196
-0.42728686 1.019257 0.16901638 -0.27699032 0.24831297 0.1436041 0.52688926 -0.05807322
-0.17962462 0.5418338 -0.06448243 -0.13105398 0.2739047 0.47062594 0.28546792 1.0644267
-0.13130036 0.0031159366 -0.014654318 -0.054161016 0.28522208 0.120804116 -0.10757541 0.2800359
-0.22741373 -0.139033 -0.10932603 -0.20430338 -0.33706883 0.16958071 -0.04776447 0.23835897
0.137056 -0.2453489 -0.014814004 -0.10819121 0.08417785 -0.11224407 -0.2807248 -0.4243998
0.0653727 0.09480435 0.19096768 -0.14400858 0.0795208 0.039620455 0.1638172 0.023651652
-0.029670108 0.07186062 -0.23151517 -0.14668125 -0.017171144 -0.036783937 -0.12330177 -0.14085561
0.023349293 -0.1934846 0.05353823 0.20491835 0.16616254 -0.23652528 0.028060311 0.14976797
-0.23758207 0.4403227 -0.11196229 0.06631124 -0.12727363 -0.002263426 0.013264419 -0.022362163
-0.039559506 -0.0438426 0.16590199 0.059764642 0.061039455 -0.36093336 -0.071910046 0.41827792
-0.16794753 -0.1099132 0.117253 -0.48104462 0.2840885 -0.02507333 -0.093525335 -0.15583707
-0.013505826 -0.22480835 0.05922919 -0.14630899 -0.08154768 0.2136822 -0.12142462 -0.2716599
-0.1553332 0.15616074 0.3042719 0.024261445 0.36955386 -0.46677345 -0.15446793 -0.42780697
-0.092730746 0.4349679 0.27338094 -0.019551406 -0.2442257 -0.0038257095 -0.5724454 0.10705893
-0.24192272 0.15451533 -0.24073334 -0.47006288 -0.00838726 0.18830727 -0.22403128 -0.38449726
-0.27755764 -0.052292343 -0.44941983 0.17064522 0.08331467 0.058813736 0.1529496 0.14334351
0.12784995 0.17899181 -0.41969314 -0.07147881 -0.32499957 -0.15044734 -0.0815887 0.07737071
0.12997258 -0.5988668 0.23119496 -0.17845915 0.3889235 -0.006890453 -0.117528096 -0.13215426
0.10129647 0.09261919 0.2080103 0.10850274 0.3276903 0.0037196232 0.07612734 0.0170587
0.23068345 0.19970721 -0.1383929 0.113396905 0.26331177 0.3940068 0.07006173 -0.33695188
0.32216302 0.17265376 -0.10885376 -0.377193 0.18033883 0.27047125 -0.22273847 -0.012338524
0.3558056 0.25730422 0.4150793 0.51956505 0.4569274 0.29464182 1.2699244 -0.27515325
-0.205132 -0.007400404 0.001254136 0.27875665 0.14896639 -0.044499293 -0.27312088 0.32671964
-0.19677785 -0.14142601 0.6193334 0.17686293 0.11760768 0.37074444 -0.30254063 0.538619
-0.15775466 0.8373359 0.49205333 -0.10494088 0.17442727 -0.05687865 0.27199242 -0.13392471
-0.111802004 0.5663853 -0.03716149 -0.122215696 0.20115761 0.20896925 0.42297772 0.8707469
-0.22139418 0.009400951 -0.06521703 -0.2281311 0.1486855 0.13583726 -0.10003058 0.46991223
-0.09731907 -0.30754286 -0.12695122 -0.23262659 -0.12039572 0.51412755 0.017307777 0.30591097

lstm.bias_hh_l1 f4 [256]
00000000: 8d7d 573e 2a03 243d fb25 2a3d 5028 22be
00000010: 8192 163f ca54 9c3e 83f1 c1bd f701 6f3e
00000020: e1ef f13e e256 f63e b97c 6b3e 1614 b63e
00000030: e2bf 293f 440b 433e f7f9 433f 8791 85bd
00000040: 79b6 7fbe bd00 863d 0e7c 5d3d 1317 123f
00000050: 1b92 4f3c 255e 3ebe 50ac 80be 7f06 0f3f
00000060: 5e22 b6bd f123 80be 36e4 f73e b2dd 453e
00000070: de43 993e 8b17 063f 3dce d9bd 2640 5f3f
00000080: 4cd3 bebe 9e33 893f 8cda 753e fb8d dbbd
00000090: a6e1 a53e dace 503e 411f 0c3f c799 7abe
000000a0: 01cc e8bd 377a 363f 8828 3b3c 56da 4dbe
000000b0: dfa1 c23e 2e58 cd3e 39cf bd3e 5731 7a3f
000000c0: f194 c1bd e7dc fc3d ced8 f83c e4b0 17be
000000d0: b364 293e e4c4 a93c cc16 92be cf9b b23e
000000e0: f95e 36be 27eb 66be 52e8 76be e584 99be
000000f0: bd4a 69be b3d1 6c3e 7bb0 9bbd 3e04 243e
00000100: 0ddd 0fbd e040 85be 5478 febd 80d3 6bbd
00000110: c380 133d ebbc a2be e7b4 adbe 581f 60be
00000120: ac5d ba3d 627c 263d 8036 0b3e 57c4 3c3b
00000130: bb2f b5bd 646e f3bd 5b5c e43d 6d6e 9a3b
00000140: 2fec d5bd 5f24 2e3e d3bf 18be c62f 1dbe
00000150: d214 a7bc e546 d73c c816 07be 2a87 56be
00000160: 0440 dcbd de7e 35be 49ae 2cbe d327 2c3d
00000170: 1011 53bc 21b6 51be 01dd 11bd f8e5 113e
00000180: e0c2 7ebe ce3b bf3e 6f75 f5bd ddbb 2e3d
00000190: d17a 1dbe b3fd 4d3d 6563 603c 21f7 aa3c
000001a0: b0c2 9dbb 00ad 64be d634 673d 5698 c13d
000001b0: c354 8f3c 3c17 bfbe e747 e63d 84b2 923e
000001c0: df3a aebe 95db 64be fa12 523e 2aee dbbe
000001d0: 0e9d 9f3e ac85 ff3c 6ad5 a33c c3e5 62be
000001e0: 9f29 42bd cdad 5cbe 1f1f 933d ee0b 8bbd
000001f0: 5018 90bd cabb 703e b24d 0ebe 597c 74be
00000200: 3b40 75bd 6dcf 333e 529d 0f3e eaf1 543e
00000210: 7475 b13e 565d c3be 00e1 4dbd b27a b9be
00000220: 1b70 f3bd ed80 9e3e ed85 123e a5be bbbc
00000230: 8dd4 b7be a053 483d f879 32bf 350c 843e
00000240: 822d 7abd c9ad 973e c959 25be 421e 20bf
00000250: 54eb 50bd 6523 873c 01cd e0bd 8915 00bf
00000260: a94b 30be a5df 1c3e 616c 28bf 29f7 8b3e
00000270: b64b df3d 4831 1b3d 6814 5d3e 1e82 063e
00000280: 5a5a 92bd 40b2 a93d 3127 cfbe de20 06be
00000290: 844d 6cbe 4a47 0ebe 8b8d 55be 3b65 743e
000002a0: 3027 583e ca0d f4be 2b37 853e bc7a fcbd
000002b0: 399e af3e 7863 71bd b531 94be b26f 51bd
000002c0: da1d 593e d392 d43d 7f73 2e3e 3f1f fd3c
000002d0: 27d7 743e e9c8 223e 5472 6a3e 1e7b c0bc
000002e0: ed2a 363d 7489 da3c 2c71 81bd 3047 6f3d
000002f0: 0ad1 cc3c b044 db3e 1943 0b3e f17b aabe
00000300: 49c8 843e 4365 603e 5ba7 22be b20b 94be
00000310: ec6f a03e 655e 8a3e c7a3 a6bd 6328 9ebc
00000320: a54a cc3e 2703 303e 7e81 f23e ed54 023f
00000330: 9938 b33e 7bfd 913e a851 923f b66b 5cbe
00000340: c747 1bbd 9aa8 b83c 5e36 2cbd 45e6 da3e
00000350: 193e 7b3e 0b0d 7fbe dceb 6dbe 62c4 c43e
00000360: 07ec 7bbd d3f7 75be 245c 143f f9de 8b3e
00000370: 8587 0c3c a716 b33e 0566 36be 7c1d 153f
00000380: adc2 30be e75f 323f 5449 a83e 3eb0 863c
00000390: ca47 873e 1469 29bd baa8 f53e 22aa 35be
000003a0: b55e 83be 73d4 163f 06c2 09be b2d8 0dbe
000003b0: bbab 143e eb60 de3d e50b f63e 7c6c 753f
000003c0: 4694 55be f89c 08bd 854d e5bc 2783 81be
000003d0: 2566 123e fb70 503e 974c 5dbe 2430 ca3e
000003e0: ff79 5fbe 8ec6 cfbd 5db2 ad3d 9bc9 16be
000003f0: c492 34be a0cd c03e 845d 043d 694a be3e
0.21043988 0.04004208 0.041540127 -0.1583569 0.588173 0.3053344 -0.09469893 0.23340593
0.47253326 0.4811316 0.22996797 0.355622 0.66308415 0.19047266 0.7655329 -0.06521898
-0.24971952 0.065431096 0.054073386 0.5706646 0.012669112 -0.18590601 -0.25131464 0.5586929
-0.08893274 -0.2502742 0.484163 0.19322851 0.2993459 0.52379674 -0.1063504 0.8720726
-0.37270582 1.0718877 0.2400915 -0.1072044 0.3239872 0.20391408 0.5473519 -0.24472724
-0.11367036 0.71280235 0.011423238 -0.2010282 0.38014123 0.40106338 0.3707216 0.97731537
-0.094522364 0.12346821 0.030376818 -0.14813572 0.1654232 0.020723768 -0.28533018 0.34884498
-0.17809667 -0.22550641 -0.2411206 -0.29984203 -0.22782417 0.23126869 -0.0760202 0.16017243
-0.03512292 -0.26026058 -0.124252945 -0.05757475 0.03601147 -0.31784758 -0.3392708 -0.21886957
0.09099898 0.040645964 0.13595009 0.002880355 -0.088469945 -0.1188629 0.11150428 0.004712871
-0.10445439 0.17006062 -0.14916925 -0.15350255 -0.02039567 0.026278922 -0.13192284 -0.20949998
-0.107543975 -0.17724177 -0.1686336 0.042030167 -0.012882486 -0.20479633 -0.035611156 0.14247882
-0.24879026 0.37350315 -0.11985289 0.04265963 -0.15378882 0.050290775 0.0136955725 0.020869793
-0.0048144683 -0.2233162 0.056446873 0.09452884 0.017496472 -0.37322414 0.11244183 0.28651822
-0.3402929 -0.22349389 0.20515051 -0.42955142 0.3117451 0.03119167 0.019999225 -0.2215796
-0.047402974 -0.21550675 0.0718367 -0.06789385 -0.07035887 0.23509136 -0.13896826 -0.2387556
-0.059875708 0.17559595 0.14024857 0.20795408 0.34659922 -0.38157147 -0.050263405 -0.36226422
-0.11886617 0.30957738 0.14308901 -0.022918055 -0.3590435 0.048907876 -0.6971736 0.25790563
-0.061078556 0.29624775 -0.16147532 -0.6254617 -0.051005676 0.01649637 -0.109766014 -0.5003286
-0.17216362 0.15319689 -0.65790373 0.27337006 0.109031126 0.037888795 0.21589816 0.13135573
-0.071461394 0.082859516 -0.40459588 -0.13098475 -0.23076445 -0.13894382 -0.20854776 0.23866741
0.21108699 -0.4766677 0.26018652 -0.12328097 0.34300402 -0.05893275 -0.28944173 -0.05113191
0.21202794 0.10379567 0.17036246 0.030898688 0.23910199 0.15896954 0.22895175 -0.023496207
0.04447453 0.02667687 -0.06320414 0.0584175 0.025002021 0.42825842 0.13599814 -0.33297685
0.25934055 0.21913628 -0.15884154 -0.28915173 0.3133539 0.27025142 -0.08136707 -0.019306367
0.399007 0.17188703 0.4736442 0.50910836 0.35004118 0.28513703 1.143117 -0.21525463
-0.03791025 0.022541333 -0.042044036 0.42753807 0.24535407 -0.24907319 -0.23234504 0.38431078
-0.06150439 -0.24020319 0.57953095 0.27318552 0.008577232 0.3497822 -0.17812355 0.58248115
-0.17261763 0.69677585 0.32868445 0.01644146 0.26421958 -0.041359976 0.4798029 -0.17740682
-0.25658193 0.5891792 -0.1345292 -0.13852194 0.14518635 0.108583294 0.4805595 0.9586866
-0.20857343 -0.033352822 -0.027991066 -0.25295374 0.14296778 0.20355599 -0.21611248 0.39489853
-0.21823882 -0.10145293 0.08481286 -0.14725344 -0.17634112 0.3765688 0.032315746 0.37166145
